
Model Summary:
Model: "sequential"
+--------------------------------------------------------------------------+
| Layer (type)                    | Output Shape           |       Param # |
|---------------------------------+------------------------+---------------|
| conv2d (Conv2D)                 | (None, 148, 148, 32)   |           896 |
|---------------------------------+------------------------+---------------|
| max_pooling2d (MaxPooling2D)    | (None, 74, 74, 32)     |             0 |
|---------------------------------+------------------------+---------------|
| conv2d_1 (Conv2D)               | (None, 72, 72, 64)     |        18,496 |
|---------------------------------+------------------------+---------------|
| max_pooling2d_1 (MaxPooling2D)  | (None, 36, 36, 64)     |             0 |
|---------------------------------+------------------------+---------------|
| conv2d_2 (Conv2D)               | (None, 34, 34, 128)    |        73,856 |
|---------------------------------+------------------------+---------------|
| max_pooling2d_2 (MaxPooling2D)  | (None, 17, 17, 128)    |             0 |
|---------------------------------+------------------------+---------------|
| flatten (Flatten)               | (None, 36992)          |             0 |
|---------------------------------+------------------------+---------------|
| dense (Dense)                   | (None, 128)            |     4,735,104 |
|---------------------------------+------------------------+---------------|
| dense_1 (Dense)                 | (None, 5)              |           645 |
+--------------------------------------------------------------------------+
 Total params: 14,486,993 (55.26 MB)
 Trainable params: 4,828,997 (18.42 MB)
 Non-trainable params: 0 (0.00 B)
 Optimizer params: 9,657,996 (36.84 MB)


Evaluation:
Accuracy: 0.7907
Precision: 0.7930
Recall: 0.7898
F1-score: 0.7892

Classification Report per Class:
              precision    recall  f1-score   support

…
